model.pt (torch, 2887 bytes, 5 tensors)

input_layer.weight f4 [10, 14]
0	0xbd88b5e8	-0.06675321
1	0x3e27b642	0.1637812
2	0x3e380830	0.17971873
3	0x3cee3dfe	0.029082295
4	0x3bf576ca	0.0074909674
5	0xbdd1bdcf	-0.10241281
6	0x3ddc1b93	0.10747447
7	0x3eb58f3b	0.3546084
8	0x3f447d01	0.7675324
9	0x3deea6ea	0.1165293
10	0x3e405e26	0.18785915
11	0x3e0e05cf	0.13869403
12	0x3e2a63c4	0.1663962
13	0x3e38de98	0.18053663
14	0x3de2848d	0.11060438
15	0x3da5f512	0.08103384
16	0xbcf884de	-0.030336794
17	0x3e3b57c6	0.18295202
18	0x3d382929	0.04496113
19	0xbe02a087	-0.12756549
20	0xbd144dae	-0.036206894
21	0x3c4cff37	0.01251202
22	0x3f0d1400	0.5510864
23	0x3c7c32e3	0.015392992
24	0x3e5c1ec0	0.21496105
25	0x3e12db28	0.14341414
26	0x3e7e05d5	0.24806912
27	0x3d8fd2b3	0.070226096
28	0x3c72da9d	0.014822629
29	0x3e6391dc	0.2222361
30	0x3e8d88a6	0.27643317
31	0x3e6d6aa9	0.23185219
32	0x3cf876cf	0.03033009
33	0x3d3f73be	0.04674124
34	0x3da9f43e	0.082985386
35	0x3daf0e71	0.08547676
36	0xbf42fd90	-0.76168156
37	0x3ec26de4	0.37974465
38	0x3e0c4726	0.13699016
39	0x3c033fd1	0.0080108205
40	0x3d800915	0.06251732
41	0x3d974ca7	0.07387667
42	0x3e5f5cdb	0.21812765
43	0x3e37b973	0.17941837
44	0x3d7a9f00	0.06118679
45	0xbdec4492	-0.11536516
46	0xbc7a017e	-0.015259145
47	0x3bbe848f	0.005814142
48	0xbe735fde	-0.23767039
49	0x3dede0c9	0.1161514
50	0xbf18c063	-0.5966856
51	0x3d5e0a41	0.054208998
52	0x3d30b905	0.0431452
53	0x3ba73f5b	0.005103988
54	0x3eb433a0	0.35195637
55	0x3eb79078	0.35852408
56	0xbd346619	-0.04404268
57	0xbd9967fa	-0.07490535
58	0xbe1cc8dc	-0.15310997
59	0x3e6adf23	0.22936682
60	0xbe7eb909	-0.24875273
61	0x3d6e8373	0.05823083
62	0x3d9fee66	0.07809143
63	0x3e08d01b	0.13360636
64	0xbea10a6c	-0.31453264
65	0xbe8b7f60	-0.27245617
66	0x3e2e6296	0.17029795
67	0x3e68b7a9	0.22726311
68	0x3e1e3a91	0.15452029
69	0x3e9046b8	0.28178954
70	0x3db47892	0.088120595
71	0x3e303ae6	0.17209968
72	0xbb96a6ab	-0.004597505
73	0xbdf04806	-0.117324874
74	0x3db6c406	0.08924107
75	0x3d17f77e	0.03710126
76	0xbdd1dbaa	-0.10246976
77	0xbd0fc380	-0.035098553
78	0x3f4fe9bd	0.8121603
79	0x3e22ebc0	0.15910244
80	0x3da4e053	0.08050599
81	0x3e131b99	0.14365996
82	0x3d70439c	0.058658227
83	0x3dd9f623	0.1064265
84	0xbe10dd1a	-0.14146844
85	0x3e55bd28	0.20872939
86	0x3e4df541	0.20113088
87	0x3dc03ac3	0.09386208
88	0x3dcbf6b7	0.099591665
89	0x3d25ff9a	0.040526964
90	0x3e26e00c	0.16296405
91	0x3c778536	0.015107444
92	0xbea89e60	-0.3293333
93	0x3e641267	0.22272645
94	0xbc8639a4	-0.016384907
95	0x3e707274	0.2348116
96	0x3f052c63	0.52020854
97	0x3ed53681	0.41643146
98	0xbda4f27d	-0.080540635
99	0x3d8ca945	0.06868223
100	0xbde1026e	-0.109867916
101	0xbdb249cd	-0.08705483
102	0x3e69fe90	0.22851014
103	0x3d1046ae	0.035223655
104	0x3e786dc7	0.24260627
105	0xbd6f444b	-0.05841474
106	0xbf242972	-0.6412574
107	0xbdaa85db	-0.08326312
108	0x3e6cb907	0.23117457
109	0x3e1dea94	0.15421516
110	0x3e8447d0	0.2583604
111	0x3ee00267	0.43751833
112	0x3df25bd4	0.11833921
113	0x3e00b45c	0.12568802
114	0x3be5a78b	0.007008498
115	0xbe1f5c65	-0.1556259
116	0x3ea7d847	0.32782194
117	0x3e0b9019	0.13629188
118	0x3e59a1dc	0.2125315
119	0x3e3b56ee	0.1829488
120	0x3f02280f	0.50842375
121	0x3ec19272	0.3780704
122	0x3e99ac5d	0.30014315
123	0x3c1f30d7	0.009716234
124	0x3ed08c09	0.40731838
125	0x3eac1784	0.3361169
126	0x3dfba9a4	0.12288216
127	0x3e442dbf	0.19158076
128	0x3e7df073	0.24798755
129	0x3e7a3e9b	0.24437945
130	0x3e0b81e6	0.13623771
131	0xbd6b97d3	-0.057517838
132	0x3d03ed27	0.032208588
133	0xbdadc13d	-0.08484123
134	0x3f2b55b0	0.66927624
135	0x3dce4ca5	0.100732125
136	0x3c12d636	0.008962205
137	0xbcebca33	-0.02878294
138	0x3db7adce	0.089686975
139	0x3e82ef21	0.25573066

input_layer.bias f4 [10]
0	0xbe04e4ca	-0.12977901
1	0xbe0acd67	-0.13554917
2	0x3ee490db	0.44641766
3	0x3edb196b	0.4279283
4	0x3f085551	0.5325518
5	0xbda35043	-0.07974293
6	0x3f2af6f5	0.66783077
7	0x3edc092b	0.42975745
8	0xbd8dae44	-0.06918004
9	0x3e9746cc	0.295462

hidden_layer.weight f4 [5, 10]
0	0xbef38f74	-0.47570384
1	0xbf0546d1	-0.5206118
2	0x3f065f43	0.5248911
3	0x3f016052	0.505376
4	0x3f11b8a0	0.5692234
5	0xbf056b53	-0.5211689
6	0x3f13a9d4	0.5768101
7	0x3f00b991	0.5028315
8	0x3c7ac6e4	0.015306208
9	0xbcf5fc29	-0.030027466
10	0x3f3aa560	0.7290859
11	0x3f2ab1e4	0.6667769
12	0xbf67e517	-0.9058394
13	0xbf063c8c	-0.5243614
14	0x3de2880d	0.11061106
15	0x3eae2990	0.34016085
16	0x3e3b9b36	0.18320927
17	0xbe9cdb35	-0.30635992
18	0x3f1de72e	0.6168088
19	0x3f34ce71	0.70627505
20	0x3f1b8692	0.60752213
21	0x3f116484	0.56794
22	0xbed598d0	-0.4171815
23	0xbeed820a	-0.46388274
24	0xbe3fc4a4	-0.18727356
25	0x3eff2dc4	0.49839604
26	0x3e54322d	0.20722266
27	0xbf1a471c	-0.60264754
28	0x3f3d3f58	0.7392478
29	0x3f1e4f8b	0.6184012
30	0xbe090b49	-0.13383211
31	0xbe9ba696	-0.30400532
32	0x3e882c08	0.26596093
33	0x3f1eb3f6	0.6199335
34	0x3f251233	0.64480895
35	0xbe889938	-0.26679397
36	0x3f066dff	0.5251159
37	0x3ef60bd6	0.48055905
38	0xbe45797c	-0.19284624
39	0xbe9354e6	-0.2877571
40	0xbede7cc9	-0.4345458
41	0xbed13d97	-0.40867302
42	0x3e9b3eb2	0.3032127
43	0x3efaaf9c	0.48962104
44	0x3ede8b84	0.43465817
45	0xbed57e88	-0.41698098
46	0x3dbc0983	0.09181502
47	0x3f0a57ca	0.54040205
48	0xbdfdb849	-0.12388665
49	0x3e7e59cb	0.24838941

hidden_layer.bias f4 [5]
0	0x3ea15bda	0.3151539
1	0x3cbf8b27	0.023381783
2	0x3e28e92e	0.16495201
3	0x3f02420a	0.5088202
4	0x3efc0b6e	0.4922747

output_layer.weight f4 [1, 5]
0	0xbf636c8a	-0.8883749
1	0x3f82d25c	1.0220447
2	0x3f071889	0.5277181
3	0xbf372724	-0.715441
4	0xbf61d134	-0.88209844
