model.pt (torch, 2887 bytes, 5 tensors)

input_layer.weight f4 [10, 14]
00000000: 389c b03e b212 1c3e 8112 c0bd 8dc9 353e
00000010: bc75 813c cfc5 813d 2f56 2cbe 7b5a 0d3e
00000020: 4f78 23bf 36ef 6cbc 2da0 b53d 67a9 023c
00000030: 80f7 5abd 6062 533e 4e68 263e 38d0 b33e
00000040: 336b 853e caf1 4a3c 6bc3 523e 3e2e 8e3e
00000050: a6cd 583c 0465 f2bc cab5 4cbf d738 423d
00000060: 55b2 20be ef02 2a3e 237c 0e3e c770 d23e
00000070: a9ae d6bd 7b5e 8a3e 7575 34bd 0bcb 7b3e
00000080: 9b21 38be 5d83 dc3d 23f8 5cbd cf02 103d
00000090: 42db 4dbf ef0a b8bd e198 443e f7cb ef3d
000000a0: e550 723e de33 d73e d908 8ebe 9458 193e
000000b0: cdf6 89be 0f72 a03d c893 e9be 7236 26be
000000c0: e244 f0bd 26d7 9cbe 56cc c5be 86fb a1be
000000d0: ca1c 173e 6167 223e ce47 c53e ee49 973e
000000e0: b696 67bb eb7b 30be 8195 59bd 6c21 97bd
000000f0: 76ba fcbc 0642 7f3e 9d31 b73d df84 0e3e
00000100: ca43 27bf 59df 2e3e 03ef 983d 1b13 603e
00000110: 154b 963e 4baf 8c3e 61a0 d6bc a654 90be
00000120: 8856 88be 84ec 7b3c 1cb3 63be 79fb 3dbe
00000130: 250f f1bd e20e 23bd a405 0abc c3e1 b8bd
00000140: cc13 47be 6a2b d1bc 28ee 6b3d b737 b2be
00000150: 541d 83bd 7569 fbbd f225 073e aea4 3abd
00000160: 7232 663e 71fb 0bbe 7d00 6e3e c4e9 573e
00000170: b714 29bf 282d b13e ae7e ec3d 702c 473e
00000180: 2c57 d03e e28a 633e d674 553e 95c8 1d3e
00000190: 9b7c a33e 7a3d b13d 0520 d73d 063b 8e3e
000001a0: a748 8b3d 7504 b93e 3f92 533f 9d50 ba3e
000001b0: e7e0 893e c291 a63e d555 a03e 132e a83e
000001c0: 0381 96bd 4101 e2bd 574c a93d 318e 44bd
000001d0: 31a4 c7be c0b7 c23d dacf 0a3e 36ef 073e
000001e0: 1de3 f1be a79d 683c b880 dc3c 6839 65be
000001f0: 2fa6 9e3e 420f 063f 4705 f03c 2a20 833e
00000200: 23c7 7e3c 5c20 aa3d a70a 943e beb6 f53d
00000210: 427b 3e3e c0d8 8e3e 337c 6c3f 2743 9c3e
00000220: aeaa 733e ebc8 283e 1235 023f 0c6d df3e
0.34494185 0.15241507 -0.09378529 0.17752667 0.01580321 0.06336557 -0.16829751 0.13804047
-0.6385545 -0.014461329 0.08868442 0.007974959 -0.05345869 0.20642996 0.16250727 0.35119796
0.2605835 0.012386749 0.20582359 0.27769655 0.013232624 -0.029589184 -0.7996489 0.047417488
-0.15693028 0.16602682 0.13914542 0.41101667 -0.104825325 0.27025208 -0.04405733 0.24589173
-0.1798157 0.10767243 -0.05394758 0.03515893 -0.80412686 -0.089864604 0.19198944 0.11708825
0.23663671 0.4203176 -0.27741125 0.14975196 -0.26946107 0.07834255 -0.4562056 -0.16231707
-0.11731888 -0.30632895 -0.38632458 -0.3163721 0.14757076 0.15859748 0.38531345 0.2954859
-0.0035337633 -0.17234771 -0.053121094 -0.073794216 -0.03085063 0.2492753 0.0894501 0.13917874
-0.6533781 0.17077388 0.07467463 0.21882288 0.29354158 0.27477488 -0.026199521 -0.28189582
-0.26628518 0.015376214 -0.22236294 -0.1855296 -0.11770467 -0.039809115 -0.008424196 -0.09027436
-0.19441146 -0.025533397 0.05760017 -0.34808132 -0.06402078 -0.12275974 0.13198069 -0.045567207
0.22480181 -0.13670136 0.23242374 0.21085268 -0.66047233 0.34604764 0.115476 0.19450545
0.40691507 0.22220948 0.2084535 0.15408547 0.31931004 0.08654304 0.10504154 0.27779406
0.06800967 0.36136213 0.8264503 0.36389628 0.269294 0.3253308 0.31315485 0.32847652
-0.07348826 -0.110353954 0.08266514 -0.047987167 -0.38992456 0.09507704 0.13555852 0.13274845
-0.47243586 0.0141977435 0.026916847 -0.2238518 0.30986163 0.5236703 0.029299391 0.25610477
0.015550408 0.08306953 0.28914377 0.11997746 0.18601707 0.27899742 0.9237701 0.30519983
0.23795578 0.16482894 0.5086223 0.43637884

input_layer.bias f4 [10]
00000000: d708 003f 7dfe bd3e d7e5 ab3e b13a a73e
00000010: edb0 0b3f cb9b 1cbd a0e7 ae3e acf9 a1bd
00000020: a55f a83e 738b d53c
0.5001349 0.37108222 0.3357379 0.32661965 0.5456684 -0.038234513 0.3416109 -0.07908949
0.3288547 0.026067471

hidden_layer.weight f4 [5, 10]
00000000: 5348 de3e 9e5a 633f da2c db3e 4cb1 793e
00000010: 7c6c 123f e4b2 18bd bb02 f73e 6f9e e4be
00000020: 4847 833e 8343 24be 7acf 703f 8401 e83e
00000030: f1e9 0e3f a77d ea3e bee4 1e3f 856a fabd
00000040: 7925 e33e ce0f 03bf bc84 103f 0cb9 d3be
00000050: d9a3 b5be 9b42 d6bd 1a62 abbe 5acd 8bbe
00000060: 356f f83c 8b1c 18be 164d 2b3e 1245 f23e
00000070: 7053 4cbe 4694 293f 9025 223f 04d0 4b3f
00000080: 6492 863e 6cac ec3e 5fef 2b3f 9d8a b4bc
00000090: 3be3 5e3f b662 14bf 7068 0f3f 919d 89be
000000a0: 5a27 d1be edc3 86be fd4a 64be d52a 14be
000000b0: dafe 38be 4abf ecbd 1489 0abe 46f4 643f
000000c0: 880a 20bd 2c4e 333f
0.43414554 0.88810146 0.42807657 0.2438404 0.57196784 -0.03727998 0.4824427 -0.44652125
0.2564032 -0.16041379 0.94066584 0.45313656 0.55825716 0.4579899 0.6206778 -0.12227348
0.44364527 -0.5119599 0.56452537 -0.41352117 -0.35476568 -0.10461923 -0.33473283 -0.27305108
0.030326465 -0.14854638 0.16728625 0.4731832 -0.19953704 0.6624187 0.63338566 0.7961428
0.26283562 0.46225297 0.67162126 -0.022038752 0.87065476 -0.5796312 0.56018734 -0.26878026
-0.40850335 -0.26321355 -0.22294231 -0.14469464 -0.18065968 -0.11559923 -0.13528854 0.8943523
-0.039072543 0.70041156

hidden_layer.bias f4 [5]
00000000: 8ec4 803e 7bfe 053f 1952 813e 5161 573e
00000010: 19d1 c33e
0.2514996 0.5234143 0.25257948 0.21033217 0.38245466

output_layer.weight f4 [1, 5]
00000000: 3af4 7ebf 9982 2fbf 5af5 053f aefe 52bf
00000010: cdbf 463f
-0.9959141 -0.6855865 0.523275 -0.8241986 0.77636415
