model.pt (torch, 2887 bytes, 5 tensors)

input_layer.weight f4 [10, 14]
0	0xbc9a2c15	-0.018819848
1	0x3dac48a4	0.084122926
2	0x3d78e1d9	0.06076226
3	0x3cf6b6ab	0.0301164
4	0x3e2ba4d8	0.16762102
5	0x3e41b435	0.189164
6	0x3dbe89bc	0.093036145
7	0x3d4972ee	0.04918187
8	0xbf51fec1	-0.8202935
9	0x3dac281f	0.0840609
10	0xbdc37b99	-0.09545059
11	0x3e14d06c	0.14532632
12	0x3e291ad7	0.16514145
13	0x3ca3c48f	0.019991187
14	0x3e701b95	0.23448022
15	0x3e9ab852	0.3021875
16	0x3d79f026	0.06102004
17	0x3e01f742	0.12691978
18	0x3e6775a3	0.22603469
19	0x3d0c5b6b	0.03426687
20	0x3e187920	0.14889956
21	0x3e320579	0.173849
22	0xbf3c4f7f	-0.735588
23	0xbdaa3814	-0.08311477
24	0x3eb0c2c7	0.34523603
25	0x3d95d68e	0.07316314
26	0xbe0904bc	-0.13380712
27	0x3e312933	0.17300873
28	0x3dff9f74	0.12481585
29	0x3e16e2da	0.14734975
30	0xbd885b9c	-0.06658098
31	0x3e46c734	0.19411927
32	0xbe2e79c3	-0.17038636
33	0xbb905f36	-0.0044058813
34	0xbd4a0416	-0.049320303
35	0xbd363b3d	-0.044490088
36	0xbf377779	-0.71666676
37	0xbddc1471	-0.107460864
38	0xbd8f985a	-0.07011481
39	0xbbebff1f	-0.0072020437
40	0x3dd59607	0.10429006
41	0x3ea8b813	0.32952937
42	0xbcb58b49	-0.022161143
43	0xbbfb9631	-0.0076778163
44	0xbe10eff6	-0.14154038
45	0xbc95f53d	-0.018305415
46	0xbe120317	-0.14258991
47	0xbddfd775	-0.10929767
48	0xbcc371ff	-0.023858069
49	0x3d9f9d37	0.07793658
50	0xbf404c06	-0.75116
51	0xbd2f6d66	-0.04282894
52	0x3d8bf688	0.068341315
53	0x3e32279a	0.1739792
54	0x3e97f099	0.2967575
55	0x3eaddabe	0.3395595
56	0x3dfc7974	0.12327853
57	0xbe5b9bff	-0.21446227
58	0xbea46637	-0.32109234
59	0xbe1794a2	-0.14802793
60	0xbe7cb672	-0.24678972
61	0x3dcd8ed1	0.10037006
62	0xbe845aa7	-0.25850412
63	0x3b34fba1	0.0027615803
64	0xbefa9a7f	-0.48945996
65	0xbd786eac	-0.06065242
66	0x3d017ef9	0.03161523
67	0x3dec0636	0.11524622
68	0xbdbaa7f4	-0.09114066
69	0x3ea82da3	0.32847318
70	0x3e7627ba	0.24038592
71	0x3ee2c1a0	0.4428835
72	0xbe046e31	-0.1293266
73	0x3e91d6b8	0.2848413
74	0x3eb36ce9	0.3504403
75	0x3e9363f9	0.2878721
76	0x3e9056b7	0.28191158
77	0x3e8435af	0.25822207
78	0x3f6dc1e0	0.92873955
79	0x3e2b7a7a	0.1674594
80	0x3ece5727	0.40300867
81	0x3e85bb61	0.2611952
82	0x3e914dc5	0.28379646
83	0x3ea6da03	0.32588205
84	0x3e072c40	0.13200474
85	0x3e31e314	0.1737178
86	0xbe3a887f	-0.18216132
87	0xbc709a61	-0.014685244
88	0xbe5d68a0	-0.21621943
89	0x3d6f0402	0.05835343
90	0x3da9ce65	0.0829132
91	0xbe1c5b9e	-0.15269324
92	0xbf4809a6	-0.7813972
93	0xbe37a8d9	-0.17935504
94	0x3b8084e5	0.0039220923
95	0xbd47b853	-0.04875977
96	0x3e9b1d0f	0.30295607
97	0x3ed74225	0.42042652
98	0xbe06a739	-0.13149728
99	0xbeb5ab73	-0.35482368
100	0xbe898311	-0.26857808
101	0xbeab11d1	-0.3341203
102	0xbd12bc26	-0.035823964
103	0xbea63f1c	-0.32470024
104	0x3d21fb35	0.03954621
105	0xbe1b4634	-0.15163499
106	0xbeaab0e0	-0.3333807
107	0x3e0af58d	0.13570233
108	0x3de16ba8	0.11006862
109	0xbe2dadfe	-0.16960904
110	0x3ea31c34	0.31857455
111	0x3e1f1495	0.15535195
112	0xbe355ec9	-0.17711939
113	0xbd8094bc	-0.06278369
114	0xbde2a8ea	-0.11067374
115	0x3dcf105a	0.10110541
116	0xbe52e762	-0.20596078
117	0x3e214d7b	0.15752213
118	0xbdf15f7e	-0.11785792
119	0xbd41f0c5	-0.047348756
120	0xbe11dce0	-0.14244413
121	0xbe80fdb7	-0.2519357
122	0xbe2cc505	-0.16872032
123	0xbe00231f	-0.12513398
124	0xbc691f3e	-0.01422864
125	0x3d706dae	0.05869835
126	0x3d2055aa	0.039144196
127	0xbc39e5b5	-0.01134627
128	0xbd204934	-0.039132312
129	0xbc9c2f48	-0.019065514
130	0x3d840c19	0.0644762
131	0x3d2282a5	0.039675374
132	0xbd477406	-0.048694633
133	0x3d3bd4fa	0.045857407
134	0xbf432dd0	-0.7624178
135	0x3dc82de2	0.097743765
136	0xbc5238b6	-0.012830904
137	0xbd375579	-0.044759247
138	0x3e07ab1f	0.13248871
139	0x3e845936	0.25849313

input_layer.bias f4 [10]
0	0x3f2388bb	0.6388051
1	0x3f0cb4e8	0.5496354
2	0x3eef1a3e	0.4669971
3	0x3ea08db9	0.31358126
4	0x3efc84a4	0.49319947
5	0xbd817555	-0.063212074
6	0x3e9bb558	0.30411792
7	0x3e4078b5	0.18796046
8	0x3df280c7	0.118409686
9	0x3f020ffc	0.5080564

hidden_layer.weight f4 [5, 10]
0	0x3f72e9d8	0.9488807
1	0x3f7d9f84	0.99071527
2	0x3eaa4f48	0.33263612
3	0x3f1403bb	0.5781819
4	0x3f36e158	0.714376
5	0xbf2cfef8	-0.6757655
6	0x3edad47c	0.42740238
7	0x3eb9f84d	0.3632225
8	0xbd6b0571	-0.057378236
9	0x3f143311	0.5789042
10	0x3f098c97	0.5373015
11	0x3f6d18b0	0.92615795
12	0x3f35e047	0.71045345
13	0x3ed68f02	0.4190598
14	0x3eb7ec7a	0.35922605
15	0xbf1818a7	-0.59412616
16	0x3f370722	0.7149526
17	0x3ebd83a6	0.37014502
18	0xbd84806f	-0.06469809
19	0x3f4f1c66	0.8090271
20	0x3f0718e0	0.5277233
21	0x3f52f892	0.8241054
22	0x3ec6827a	0.3877142
23	0x3ee3f0c4	0.44519627
24	0x3f01a955	0.50649005
25	0xbf0f7cbc	-0.56049705
26	0x3e35d13b	0.17755596
27	0x3e618766	0.22024307
28	0x3bed7784	0.0072469134
29	0x3ef43c85	0.47702423
30	0x3ef82f78	0.48473716
31	0x3f0997bb	0.5374715
32	0x3f386347	0.72026485
33	0x3f2802dd	0.6562937
34	0x3e16372c	0.14669484
35	0xbefe3a24	-0.49653733
36	0x3f20b5ad	0.62777215
37	0x3f02ecb7	0.5114245
38	0x3eca2e7e	0.39488596
39	0x3e75a8ba	0.23990145
40	0xbe082a82	-0.13297465
41	0x3e214e04	0.15752417
42	0xbd3bcbe0	-0.045848727
43	0xbe17fafd	-0.14841838
44	0xbe12dc21	-0.14341785
45	0xbe97369a	-0.29533845
46	0xbdc9551e	-0.09830688
47	0xbe95155c	-0.29117858
48	0xbd37723f	-0.044786688
49	0x3bdff7d0	0.0068349615

hidden_layer.bias f4 [5]
0	0x3f007cb3	0.50190276
1	0x3eafc48b	0.34329638
2	0x3ef674cf	0.48135993
3	0x3ec5901e	0.38586515
4	0x3d4bbb9e	0.049739473

output_layer.weight f4 [1, 5]
0	0xbf157036	-0.58374345
1	0xbf43982f	-0.7640409
2	0xbf1261d7	-0.5718054
3	0xbf09f91c	-0.53895736
4	0x3ebbf390	0.3670926
